exercises/w4/checkpoint.pt (torch, 409192 bytes, 4 tensors)

fc1.weight f4 [128, 784]
0	0x3c635a14	0.013876457
1	0x3c62aaf6	0.013834706
2	0x3c685222	0.014179738
3	0x3c6bb111	0.014385478
4	0x3c65e8cb	0.014032553
5	0x3c79f1b6	0.015255382
6	0x3c8dc791	0.017307075
7	0x3bc24e03	0.00592971
8	0xbc86a4f8	-0.016436085
9	0x3c1f14ed	0.009709579
10	0x3d5f5539	0.054524634
11	0x3d0a40e4	0.03375329
12	0xbb11448a	-0.0022166097
13	0xbd6ef259	-0.05833659
14	0xbd9b5296	-0.075841114
15	0xbcd1ba74	-0.025601603
16	0x3d0c66b6	0.03427764
17	0x3d1b3e86	0.037901424
18	0x3c8551ab	0.016274294
19	0xbcbf8f88	-0.02338387
20	0xbc13a4ca	-0.009011457
21	0x3c862ecc	0.016379736
22	0x3c7984de	0.015229432
23	0x3c6cdb1c	0.014456537
24	0x3c579c36	0.013159802
25	0x3c51a5e3	0.012795898
26	0x3c5723f6	0.013131132
27	0x3c5e15ba	0.013554985
28	0x3c50ce22	0.012744458
29	0x3c6674c3	0.014065924
30	0x3c69d1dd	0.014271227
31	0x3c6e647a	0.014550323
32	0x3c6dd890	0.014516965
33	0x3bfe5a72	0.0077622468
34	0xbc1c9b7c	-0.009558555
35	0xbd7d1c06	-0.061794303
36	0x3cb634ae	0.022241917
37	0x3de965c1	0.11396361
38	0x3d3ae195	0.045625288
39	0x3b5a6d62	0.0033329357
40	0xbad4d054	-0.0016236403
41	0xba5ff8f8	-0.0008543874
42	0xbc1ab733	-0.009443092
43	0xbcd7da62	-0.02634925
44	0xbc9bb2c7	-0.019006146
45	0x3beb147e	0.0071740737
46	0x3dae0390	0.08496773
47	0x3d63429f	0.055483457
48	0xbd7681a2	-0.06018222
49	0xbcca179a	-0.024669457
50	0x3b977df2	0.004623168
51	0x3c3ddbc7	0.0115880435
52	0x3c639f63	0.013892981
53	0x3c5d5561	0.013509125
54	0x3c67df28	0.014152326
55	0x3c67907c	0.014133569
56	0x3c6445d3	0.013932663
57	0x3c698168	0.014252044
58	0x3c572e48	0.013133593
59	0x3c3cc95e	0.011522619
60	0x3bc0cf6c	0.0058841016
61	0xbc88881e	-0.016666468
62	0xbd9a3d17	-0.07531183
63	0xbd0cabcb	-0.034343522
64	0x3dae053d	0.08497093
65	0x3d905477	0.070473604
66	0xbc9d4b90	-0.01920107
67	0xbd30f440	-0.043201685
68	0xbd86f07b	-0.06588837
69	0xbd35847a	-0.044315793
70	0xbcc76d96	-0.024344247
71	0xbd84358c	-0.06455526
72	0xbd7116a7	-0.058859494
73	0xbd06a22d	-0.032869507
74	0x3cfae53a	0.030626882
75	0x3db019b5	0.08598653
76	0xbc33019c	-0.010925677
77	0xbd92811e	-0.071535334
78	0xbd1221d5	-0.035676796
79	0x3b3fcdeb	0.0029267024
80	0x3c404299	0.011734628
81	0x3c4caa32	0.01249175
82	0x3c4b4b21	0.012408049
83	0x3c5c17a0	0.013433367
84	0x3c5710c5	0.013126557
85	0x3c5bc6d8	0.013414107
86	0x3c690d19	0.014224314
87	0x3c243051	0.010021285
88	0xbb2a7c0a	-0.0026013874
89	0xbd0583a7	-0.032596257
90	0xbda67b34	-0.08128968
91	0x3be23e65	0.0069044107
92	0x3d86fe6a	0.065914944
93	0xbb94a016	-0.0045356853
94	0xbd457b67	-0.04821339
95	0xbbb83687	-0.0056217345
96	0xbd1b4c29	-0.03791443
97	0xbd1b994b	-0.03798799
98	0xbd0aea42	-0.033914812
99	0xbd1d5607	-0.03841212
100	0xbc6b673a	-0.014367873
101	0xbc9fece1	-0.019522132
102	0xbb230615	-0.0024875451
103	0x3c8fca8c	0.017552637
104	0x3b17eb96	0.0023181192
105	0xbd9761d5	-0.07391707
106	0xbd7ad8a5	-0.061241765
107	0xbc400fa4	-0.011722479
108	0x3c08db20	0.008353025
109	0x3c49a3c2	0.012307109
110	0x3c59c342	0.013291182
111	0x3c5983d6	0.013276061
112	0x3c5b0755	0.013368447
113	0x3c567ab7	0.013090781
114	0x3c481fd8	0.012214623
115	0x3c26df85	0.010185127
116	0xbc1d4db2	-0.009601044
117	0xbd5cf9ff	-0.053949352
118	0xbd896f2f	-0.0671066
119	0x3cdb5206	0.02677251
120	0x3d24e8bb	0.04026101
121	0xbc8bb6aa	-0.017054874
122	0xbcac8407	-0.02105905
123	0xbb2d5f10	-0.0026454367
124	0xbcfb1c55	-0.030653158
125	0xbd281109	-0.04103187
126	0xbd5327ef	-0.051551756
127	0xbcbe2f5b	-0.02321594
128	0xbbaa6625	-0.005200165
129	0x3bf02f9c	0.007329894
130	0xba94992a	-0.001133715
131	0x3b6afbac	0.0035855575
132	0x3cd47918	0.025936648
133	0xbd3091c3	-0.04310776
134	0xbdabd8d9	-0.0839097
135	0xbcaa1159	-0.020760225
136	0x3b9cb455	0.0047822394
137	0x3c28bb8c	0.010298621
138	0x3c484996	0.0122245755
139	0x3c5903fc	0.013245579
140	0x3c7866b2	0.015161203
141	0x3c91985a	0.017772842
142	0x3c7d8c1a	0.015475297
143	0x3c0d7457	0.008633695
144	0xbc4dc261	-0.012558551
145	0xbd44bf68	-0.0480341
146	0xbd5ba2a2	-0.053621896
147	0x3d34015a	0.0439466
148	0x3d8bfe11	0.06835569
149	0x3c9bfc86	0.019041311
150	0x3b3d88f2	0.0028920737
151	0xbbd95690	-0.0066326335
152	0x3c0d04fb	0.0086071445
153	0xbd38210f	-0.044953402
154	0xbd611d44	-0.05495955
155	0xbb0d8e39	-0.0021599664
156	0xbb88f14e	-0.0041791564
157	0xbbf628f9	-0.0075122085
158	0x3c21babc	0.009871181
159	0x3c298090	0.010345593
160	0x3c9f0811	0.019413026
161	0xbc8494f2	-0.016184304
162	0xbd958422	-0.07300593
163	0xbcc79efe	-0.024367806
164	0x3bb7ad85	0.005605402
165	0x3c59495c	0.013262119
166	0x3c89f440	0.0168401
167	0x3c87ee75	0.016593197
168	0x3c76bc67	0.015059567
169	0x3c781286	0.015141135
170	0x3c53f880	0.012937665
171	0x3b529a8e	0.0032135579
172	0xbcb2edba	-0.021841872
173	0xbd7b4feb	-0.061355513
174	0xbcc583e8	-0.02411075
175	0x3d33a2c2	0.04385639
176	0x3d3dfb32	0.046382137
177	0x3d305a23	0.04305471
178	0xbc563e33	-0.013076353
179	0xbcd1104a	-0.025520463
180	0x3b7b315e	0.0038328986
181	0xbd27d55e	-0.040974967
182	0xbd36bec4	-0.044615522
183	0xbc6d5b46	-0.014487093
184	0x394a623a	0.00019300813
185	0x3b1aec9e	0.002363957
186	0x3c768921	0.0150473425
187	0x3d132eea	0.035933413
188	0x3d1cf579	0.03832004
189	0x3c8436be	0.016139384
190	0xbd2c90a2	-0.04213012
191	0xbd224c8b	-0.03962378
192	0x3a132cf0	0.0005614301
193	0x3c38963c	0.011266287
194	0x3c53386e	0.012891872
195	0x3c805af8	0.015668377
196	0x3c763350	0.015026882
197	0x3c61948a	0.013768325
198	0x3c339dcd	0.010962916
199	0xb91a2570	-0.00014700531
200	0xbcbc0934	-0.022953607
201	0xbd6cc745	-0.057807226
202	0xbb27b978	-0.0025592726
203	0x3d50bff3	0.050964307
204	0x3d0ed4ec	0.034871027
205	0x3cc5568f	0.024089126
206	0xbccf64d6	-0.025316637
207	0xbac0dfd2	-0.0014715141
208	0xbc441bfc	-0.011969563
209	0xbc4f4e43	-0.012652936
210	0xbccf9c5d	-0.025343115
211	0xbc431d69	-0.011908867
212	0xbbad561d	-0.0052898065
213	0xbccc0cf4	-0.02490852
214	0xbc375f99	-0.011192226
215	0x3c8476bc	0.016169898
216	0x3ccc3353	0.024926817
217	0x3cd575da	0.026057173
218	0xbc9259cb	-0.017865082
219	0xbd42320a	-0.047411002
220	0xbc12935d	-0.008946267
221	0x3c213b60	0.009840816
222	0x3c49bdb5	0.012313296
223	0x3c65a303	0.014015916
224	0x3c5f956e	0.013646467
225	0x3c6a7519	0.014310145
226	0x3c3f237b	0.011666174
227	0xb9273410	-0.00015945756
228	0xbcbf6ae2	-0.023366395
229	0xbcf500ae	-0.02990755
230	0x3bec74bc	0.0072160643
231	0x3d144a81	0.036203865
232	0x3cb1a04f	0.021682886
233	0xbd500506	-0.05078604
234	0xbd928e02	-0.07155992
235	0x3c5681f7	0.0130925095
236	0x3c05d6ee	0.008168919
237	0xbb1f1ae7	-0.002427751
238	0xbc3d8277	-0.01156675
239	0xbc937e7c	-0.018004648
240	0xbc9473f7	-0.018121703
241	0xbd01d3db	-0.03169618
242	0xbda1cec2	-0.07900764
243	0xbb25d621	-0.0025304633
244	0x3d182dd3	0.037153076
245	0x3d555e65	0.052091975
246	0x3b192fec	0.002337451
247	0xbd07b9ec	-0.033136293
248	0xbc552f20	-0.013011724
249	0x3b4c4a3a	0.0031172172
250	0x3c6c48a3	0.014421615
251	0x3c827fbd	0.015930051
252	0x3c7848f2	0.01515411
253	0x3c8da700	0.017291546
254	0x3c81eac2	0.015859012
255	0x3bc16a40	0.0059025586

fc1.bias f4 [128]
0	0xbc5ea688	-0.013589509
1	0xb916918b	-0.00014359334
2	0xbcac5629	-0.021037178
3	0xb8e603b8	-0.00010967947
4	0xbc3a48e9	-0.011369922
5	0xbbfa4718	-0.0076378696
6	0xbbd7c7ea	-0.006585111
7	0x3c3d1092	0.011539595
8	0xbbc0005d	-0.0058594183
9	0xbc5980b4	-0.013275314
10	0xbb16db65	-0.0023018953
11	0xbd1fcf00	-0.03901577
12	0xbb82825f	-0.0039828266
13	0xbaddd290	-0.0016923714
14	0xb973cd1c	-0.00023250695
15	0x3c8fcc9d	0.017553622
16	0x38074706	3.2252654e-05
17	0xbb9f8da8	-0.0048691817
18	0xbbf12756	-0.0073594255
19	0xbc9ace6b	-0.018897256
20	0xbc8671d7	-0.016411705
21	0x3c0f8b82	0.008761289
22	0xbc5b1e20	-0.013373882
23	0xbbf3c39d	-0.0074390904
24	0xbc74753a	-0.014920527
25	0xbc0d981c	-0.008642223
26	0x3d1227a4	0.035682335
27	0xbc4e15fa	-0.012578482
28	0xbc144d76	-0.009051671
29	0x3ab26462	0.0013610239
30	0x3a3440d8	0.00068761175
31	0xbc024b18	-0.007952474
32	0x3c341c36	0.010993054
33	0xb8ec005d	-0.000112534246
34	0xba11772d	-0.00055490696
35	0xbbb04fb6	-0.005380596
36	0xbbc580bd	-0.0060273097
37	0xbb1d32aa	-0.0023986497
38	0xb8f5d341	-0.000117218595
39	0xbc132e02	-0.008983137
40	0x3ca536b0	0.020167679
41	0xbc3a89e2	-0.011385413
42	0xbb0ebb1c	-0.0021779006
43	0xba7d4e24	-0.0009662828
44	0xbc4e22b3	-0.012581515
45	0xbc1fca5c	-0.009752836
46	0xb95994b7	-0.00020750133
47	0xbaecf506	-0.0018078394
48	0xbb81e0db	-0.0039635724
49	0xb7a1c491	-1.9284229e-05
50	0xbc0d2e60	-0.008617014
51	0x3c10ed32	0.008845614
52	0xbc51635e	-0.012780039
53	0xbba71582	-0.0050989995
54	0xbc347624	-0.011014495
55	0xbbc169d4	-0.0059025083
56	0xbada6659	-0.0016662582
57	0xbc014259	-0.007889354
58	0xbc9f5dda	-0.019453932
59	0xbb40559e	-0.0029347907
60	0xb95b5492	-0.00020916972
61	0xbc6b6979	-0.014368408
62	0xba235f38	-0.0006232145
63	0xbc1d087d	-0.009584543
64	0xb87edb62	-6.0762635e-05
65	0x3941b0c0	0.00018471759
66	0xbaf62ad2	-0.0018781072
67	0xbccab5a4	-0.024744816
68	0xbd150440	-0.036381006
69	0xbd1e196f	-0.038598474
70	0xbcf340e5	-0.02969403
71	0x39ab8aa7	0.00032718966
72	0xbc65c2de	-0.014023511
73	0x3cb8939d	0.022531325
74	0x3b83a5ef	0.0040175836
75	0xbc88ffd2	-0.016723547
76	0x3c2607cb	0.010133694
77	0xbbb36db0	-0.0054757223
78	0xbbac7cf3	-0.0052639185
79	0x3a1bd008	0.000594378
80	0xbcab888b	-0.020939132
81	0xbc7d6615	-0.015466233
82	0x384f6aa0	4.9451948e-05
83	0xbb0f67da	-0.0021881969
84	0xbb567234	-0.003272188
85	0xbc74eb5d	-0.014948693
86	0xb9d96a06	-0.0004146846
87	0x3c3b11c0	0.011417806
88	0xbc149d53	-0.009070712
89	0xbc86b4ea	-0.016443688
90	0x3c454c1c	0.012042072
91	0xbcd31924	-0.025768824
92	0xbcbc8359	-0.02301185
93	0xbb59e012	-0.0033245129
94	0xbcf53952	-0.029934559
95	0xbbd87464	-0.0066056717
96	0xbbc0d059	-0.005884212
97	0xbb8e89a4	-0.004349904
98	0xbc2f570a	-0.010701904
99	0xbc5bd5e6	-0.013417697
100	0xbc34e55b	-0.011041011
101	0xbc419a03	-0.011816504
102	0xbae78c18	-0.0017665653
103	0xba88764f	-0.0010411235
104	0xbb8ec6ae	-0.0043571806
105	0xbb3ab924	-0.00284917
106	0xbc0a019b	-0.008423234
107	0xbc040fdb	-0.008060421
108	0x3b3c00f9	0.0028687103
109	0x3c9fcc2f	0.019506542
110	0xbc758cd1	-0.0149871865
111	0xba47b49b	-0.000761816
112	0xbc2ed443	-0.010670724
113	0xbb876b9e	-0.004132702
114	0xbc845c86	-0.0161574
115	0xbc80a783	-0.015704876
116	0xbb51527f	-0.003194004
117	0xb9714afc	-0.00023011485
118	0xbc19bb2d	-0.009383005
119	0xbc82598e	-0.015911844
120	0xbc046856	-0.008081516
121	0xb8d542f3	-0.00010169102
122	0xbd284557	-0.041081753
123	0xbc1f2663	-0.009713742
124	0x3bcf1d5b	0.006320638
125	0xbc5b9c3d	-0.013403949
126	0xbb2d22f3	-0.0026418536
127	0xbc7a86b4	-0.015290905

fc2.weight f4 [10, 128]
0	0xbe2fb11f	-0.1715741
1	0x3881c1db	6.187308e-05
2	0xbe160f6b	-0.14654319
3	0xb8cc257a	-9.7344586e-05
4	0x3df39958	0.118944824
5	0xbd3c91c7	-0.04603746
6	0xbd77b81a	-0.060478307
7	0x39fe149c	0.0004846201
8	0x3d984038	0.07434124
9	0xbd4cc0da	-0.049988605
10	0xbe27fb91	-0.16404559
11	0x3cb74280	0.022370577
12	0x3bd91740	0.006625086
13	0xbbeeda00	-0.007289171
14	0xbc398b9d	-0.01132479
15	0xbd57f881	-0.052727226
16	0x392e2af1	0.0001660993
17	0xbd2099c5	-0.039209146
18	0xbb7ba58f	-0.003839824
19	0xbd0b3586	-0.03398659
20	0xbe3ddade	-0.18540522
21	0xbd8381a6	-0.06421213
22	0xbe2ce234	-0.16883165
23	0x3cf70c92	0.030157361
24	0xbdcc180e	-0.099655256
25	0xbd94f3b9	-0.07273049
26	0x3da6da45	0.081471
27	0xbbefd1bb	-0.007318703
28	0xbd86f904	-0.06590465
29	0xbde952aa	-0.1139272
30	0xbbd7c176	-0.0065843416
31	0xbe4e1697	-0.20125805
32	0xbd70ec69	-0.05881921
33	0x3a57e1e0	0.0008235257
34	0x3a5d545a	0.00084430503
35	0x3d9a9be5	0.07549266
36	0xbc813c43	-0.015775805
37	0xbc9ea408	-0.019365326
38	0xb92a08a4	-0.00016215682
39	0xbe27aaf1	-0.16373803
40	0x3e29b651	0.16573454
41	0xbd41e515	-0.04733761
42	0xbe24e27c	-0.16102022
43	0x3c317a51	0.010832385
44	0xbd4c1d7d	-0.04983281
45	0xbdc82f62	-0.097746626
46	0x3a89797a	0.0010488473
47	0xbaabac1a	-0.0013097555
48	0xbcc92945	-0.024555812
49	0x386f7291	5.708874e-05
50	0xbd98baf1	-0.07457531
51	0xbe89810a	-0.26856261
52	0x3dc41be3	0.095756315
53	0xbe136f25	-0.14397867
54	0xbdfd960f	-0.12382137
55	0xbde85222	-0.113437906
56	0x3c438919	0.011934542
57	0xbdd3a7c9	-0.10334737
58	0xbdbfd0e9	-0.09366018
59	0x3bb13a43	0.0054085567
60	0x3ae2dda0	0.0017308481
61	0xbda21a47	-0.07915168
62	0xbde85d2e	-0.113458976
63	0x3d75df60	0.06002748
64	0x38195be1	3.656361e-05
65	0xbd32abec	-0.04362099
66	0x3ac584f0	0.0015069526
67	0xbd15d19c	-0.036576852
68	0xbe870cf5	-0.26377073
69	0xbe3f38d7	-0.18674026
70	0xbd494b73	-0.04914422
71	0xbd8f44a7	-0.06995516
72	0xbda18cd6	-0.078881904
73	0xbd3a18fe	-0.04543399
74	0x3d965fad	0.073424675
75	0xbddb1d5d	-0.1069896
76	0xbc646d71	-0.0139421085
77	0xbe58c1fa	-0.21167746
78	0xbc9e16f6	-0.019298058
79	0xbd6b6a25	-0.057474274
80	0x3e0ec548	0.13942444
81	0xbe1e7c98	-0.15477216
82	0x3a00ca61	0.00049129693
83	0xba458d2b	-0.0007535989
84	0xbddf2c72	-0.10897149
85	0x3dd0c2e2	0.10193421
86	0xbaa1dfc8	-0.0012350017
87	0xbda3a74c	-0.07990894
88	0xbcc6ba2b	-0.024258694
89	0xbdd5f4c3	-0.10447075
90	0x3ced5402	0.028970722
91	0xbd5e3128	-0.054246098
92	0xbdb6f3f0	-0.08933246
93	0xbe1f9a92	-0.15586308
94	0xbe9f5c29	-0.31125
95	0xbe5ef65e	-0.21773669
96	0xbc664682	-0.014054896
97	0xbc532a1f	-0.01288846
98	0xbd35d9bc	-0.0443971
99	0xbe03560a	-0.1282579
100	0xbdfa5114	-0.12222496
101	0xbe40154f	-0.18758129
102	0xbd245836	-0.040123187
103	0x3cffb6bc	0.031215064
104	0xbceb06f2	-0.028689835
105	0x3d00c0c5	0.03143384
106	0x3d87c893	0.06630053
107	0xbd77fb67	-0.06054249
108	0x3d4d8f2f	0.05018538
109	0xbe01accf	-0.12663577
110	0x3d6339f6	0.055475198
111	0xba0ca926	-0.0005365781
112	0xbd0a4ee9	-0.03376666
113	0xbd09bceb	-0.03362743
114	0xbe2481a4	-0.16065079
115	0xbd6ae2a4	-0.057345048
116	0xbe20b17c	-0.15692705
117	0x3a1b4460	0.00059229694
118	0x3e048bec	0.12944001
119	0xbdf18794	-0.117934376
120	0xbce28b4d	-0.027654314
121	0xb992d126	-0.00028003118
122	0xbe8ae25c	-0.27125823
123	0xbe130cb0	-0.14360309
124	0x3d3fc426	0.04681792
125	0xbd951407	-0.072792105
126	0xbc36c26a	-0.01115475
127	0xbca68830	-0.020328611
128	0xbd534614	-0.051580504
129	0x39199bb7	0.00014649225
130	0xbe71e724	-0.2362333
131	0x398ca1c2	0.000268234
132	0xbc816d3b	-0.015799155
133	0x3dd51d13	0.10405936
134	0xbd835f83	-0.06414702
135	0xbdfcfc51	-0.12352813
136	0xbdaf3103	-0.0855427
137	0xbd84e246	-0.06488471
138	0xbdeb4ecd	-0.114896394
139	0xbd799965	-0.060937304
140	0xbd2d9b6a	-0.042384543
141	0xbbab092d	-0.0052195997
142	0xbd387a05	-0.045038242
143	0xbe049e46	-0.12951002
144	0x39746a6d	0.000233093
145	0xbc8ee6cd	-0.017444039
146	0xbc9256a4	-0.01786358
147	0xbd642f25	-0.055709023
148	0x3d1d79cf	0.038446244
149	0xbe063973	-0.13107853
150	0xbdd95601	-0.10612107
151	0xbdafd951	-0.08586372
152	0xbcc1e9e9	-0.023671107
153	0xbd6604ef	-0.05615705
154	0xbdb4c601	-0.08826829
155	0xbbae4216	-0.0053179367
156	0xbdc2a181	-0.09503461
157	0xbdabb1ec	-0.08383545
158	0xbb8dc700	-0.004326701
159	0xbe0cf3e0	-0.13764906
160	0xbe5f6d35	-0.21819003
161	0x3990acd6	0.00027594593
162	0xb9a832fc	-0.00032081443
163	0x3da89d44	0.08233121
164	0xbcc3b2a8	-0.0238889
165	0x3d19aa4f	0.037515935
166	0xb8c77835	-9.51145e-05
167	0xbd260966	-0.040536307
168	0xbe79a55b	-0.24379484
169	0x3d8a7df0	0.06762302
170	0x3ece3639	0.40275744
171	0xbe2a1c19	-0.16612281
172	0xbd57a2ab	-0.052645367
173	0xbdd110af	-0.1020826
174	0xb8f53fab	-0.000116943695
175	0xbb9389bb	-0.0045025027
176	0xbcd467b2	-0.025928352
177	0xb8cd6a21	-9.79493e-05
178	0xbc96850f	-0.018373994
179	0xbdc09c52	-0.09404816
180	0xbd0de9b4	-0.034646705
181	0xbe3389db	-0.17533056
182	0xbd931dec	-0.071834415
183	0x3d547447	0.051868703
184	0x3e0999b6	0.13437542
185	0xbd80c9b4	-0.06288472
186	0x3d7d235d	0.061801303
187	0xbb015cde	-0.001973919
188	0x3a0ba699	0.0005327254
189	0xbd84f7a5	-0.06492547
190	0xbe3cfaab	-0.18454997
191	0xbde151fa	-0.11001964
192	0x39fcd0c8	0.0004822074
193	0xbe13eae6	-0.14445075
194	0xbc61dd38	-0.013785653
195	0xbd41f0cd	-0.047348786
196	0xbe0673b5	-0.13130076
197	0xbe27bb97	-0.16380154
198	0xbdd93ee4	-0.106076986
199	0xbdb099d1	-0.08623088
200	0x3cd7f41e	0.026361521
201	0xbe0bd4f2	-0.13655451
202	0xbea21f0b	-0.3166431
203	0x3e352fe7	0.17694055
204	0xbe1e8bf8	-0.15483081
205	0xbe05375c	-0.13009399
206	0xbcf96ee0	-0.030448377
207	0xbc37a408	-0.011208542
208	0xbde490cd	-0.11160431
209	0x3e4fc3be	0.20289513
210	0x394b4eee	0.00019388992
211	0xbe2b2881	-0.1671467
212	0xbdae98ba	-0.08525224
213	0x3d110dd7	0.03541359
214	0xba248032	-0.0006275206
215	0xbd2ecc56	-0.04267534
216	0x3b79329f	0.0038024557
217	0xbdb7df71	-0.08978165
218	0xbde74016	-0.1129152
219	0xbe614870	-0.22000289
220	0xbd9ad54e	-0.07560216
221	0x3da6e841	0.08149768
222	0xbd000210	-0.031251967
223	0xbe374a0d	-0.17899342
224	0x3c85d498	0.016336724
225	0xbb95b3a6	-0.004568535
226	0xbd05f4f4	-0.03270431
227	0x3dd51293	0.104039334
228	0xbd836e9a	-0.0641758
229	0xbdd5602c	-0.10418734
230	0xbcac387c	-0.021023028
231	0xbd92baee	-0.0716456
232	0xbc56061a	-0.013062978
233	0xbd806e70	-0.06271064
234	0x3d15ec5e	0.03660237
235	0xbddc6f86	-0.10763459
236	0xbd911a64	-0.07085112
237	0xbe0ff299	-0.14057387
238	0xbe1db07f	-0.15399359
239	0x3b2a8813	0.0026021048
240	0xbc6e2507	-0.014535195
241	0xbd1dda41	-0.03853822
242	0x3dbecb4e	0.09316121
243	0xbd8daba6	-0.06917505
244	0x3ee11d4d	0.43967667
245	0xba841a99	-0.0010078728
246	0xbdcb407e	-0.0992441
247	0xbdaa1b97	-0.083060436
248	0xbe25b03f	-0.16180514
249	0xb9889823	-0.00026053292
250	0xbe886bb8	-0.26644683
251	0xbd87108c	-0.06594953
252	0xbdbba65f	-0.09162592
253	0x3d8d2c39	0.068932004
254	0x3b83e495	0.004025052
255	0xbcbd6767	-0.023120595

fc2.bias f4 [10]
0	0xbdd225a4	-0.10261086
1	0xbd3c99c4	-0.04604508
2	0x3c45bda6	0.0120691415
3	0x3d61061a	0.05493746
4	0x3c63020e	0.01385547
5	0xbe1deb8d	-0.15421887
6	0x3dd5ba3c	0.10435912
7	0x3cfc6b51	0.030812891
8	0x3de856e6	0.113446996
9	0xbe0bcd9a	-0.1365265
