exercises/w4/checkpoint.pt (torch, 409192 bytes, 4 tensors)

fc1.weight f4 [128, 784]
0.011681703 0.011597825 0.0112543255 0.010806281 0.010670129 0.00913986 0.007988691 0.006528931
0.0052992827 0.0020289288 0.0009070589 -0.00045240798 -0.0052817147 -0.009696498 -0.011434451 -0.009385252
-0.0029952019 0.0014907343 0.00013530115 0.0052127307 0.007032873 0.00955323 0.0104134595 0.010783198
0.013863054 0.013679749 0.011225358 0.011432556 0.011649506 0.0116340965 0.010765494 0.00954998
0.007963319 0.0065236497 0.006505541 -1.7959916e-05 -0.0020149508 -0.0053805094 -0.011297394 -0.020231802
-0.020998985 -0.02708733 -0.02341594 -0.026578298 -0.023883402 -0.01765079 -0.0106629 -0.002497685
0.0044039153 0.009655372 0.012733465 0.012711244 0.015751602 0.014899693 0.011712421 0.011066993
0.011650858 0.011495717 0.010341892 0.008221356 0.006104161 0.007369837 0.0019259963 -0.0029500145
-0.004137556 -0.010419614 -0.013089908 -0.014304828 -0.011277294 -0.01795712 -0.016629074 -0.020878697
-0.016893992 -0.0134275025 -0.00700829 -0.00894089 0.0043325247 0.008146039 0.016256722 0.025516313
0.023243226 0.011598484 0.010847419 0.010851461 0.011689484 0.0105028665 0.008953291 0.0061885454
0.004516883 -0.0005872984 -0.0032980612 -0.0027065496 -0.00818637 -0.00868913 -0.009505442 -0.00698643
-0.00690864 -0.014166368 -0.01124694 -0.009090745 -0.005103624 -0.00068987795 -3.4229888e-05 -0.0019405806
0.0033937239 0.012218932 0.019422702 0.016380878 0.019935533 0.009240426 0.010702123 0.01166543
0.01084158 0.009359328 0.0066394405 0.005362767 0.004051463 -0.0034770907 -0.00624941 -0.0031706432
-0.01053632 -0.012446461 -0.009991937 -0.0108359875 -0.0052133934 -0.010804619 -0.0061169043 -0.005865682
-0.0021463598 0.0060554384 0.010373061 0.0034167052 0.006784728 0.010289074 0.018749384 0.0136611825
0.0081267245 0.003965876 0.006187656 0.008326844 0.0107058 0.0074676992 0.0043108976 0.0021604768
-0.005790435 -0.012672624 -0.010979077 -0.010726256 -0.01594704 -0.011183329 -0.013195662 -0.01112537
-0.008413852 -0.0165351 -0.013120094 -0.008785872 -0.0017799537 -0.005455316 -0.011456554 -0.009303546
0.017497027 0.0107620405 0.011082286 0.0065338784 0.012417914 0.019233158 0.011781641 0.005598598
0.0100199 0.0065588197 0.0031095687 -0.0022320128 -0.008122777 -0.011800895 -0.012383832 -0.01647078
-0.019366534 -0.021426452 -0.018812655 -0.01594444 -0.020928614 -0.01733107 0.009454507 0.009595487
-0.001133326 -0.009666184 -0.0020886676 -0.00017134787 0.013047246 0.018891668 0.013781282 0.024817396
0.03464218 0.02742206 0.0025146513 0.006721244 0.009123199 0.0038039705 0.0035181297 -0.0032155497
-0.01175795 -0.017653948 -0.023207135 -0.030794382 -0.029841792 -0.026406344 -0.024523329 -0.021060018
-0.025583027 -0.007442245 0.025441295 0.008005214 -0.014246491 -0.011083025 -0.008178156 -0.019753214
-0.024063753 -0.017021915 -0.0075177327 0.019877264 0.026651293 -0.0021251072 -0.022300849 -0.008418539
0.009122532 0.0031041126 0.0011020026 -0.00704591 -0.017101185 -0.025154809 -0.02685738 -0.03437582
-0.038364317 -0.032022968 -0.027528405 -0.024937753 0.0002102849 0.025289577 0.045028105 0.021419127
0.0023617921 0.0018457151 0.0068614413 -0.0157382 -0.03879635 -0.041014943 -0.044351883 -0.038008373
-0.0018076063 -0.01563304 -0.022777358 -0.0026895497 0.007055985 -0.0023983372 -0.0020878953 -0.012262224
00000000: 9d64 3f3c ce04 3e3c 1064 383c d40c 313c
00000010: c4d1 2e3c 5abf 153c 00e3 023c a5f0 d53b
00000020: 9ba5 ad3b c7f7 043b b1c7 6d3a 2c31 edb9
00000030: 3c12 adbb 0fde 1ebc 9057 3bbc 9ac4 19bc
00000040: 264b 44bb be64 c33a a0df 0d39 8ecf aa3b
00000050: 0474 e63b 2785 1c3c 379d 2a3c 03ac 303c
00000060: dd21 633c 0721 603c 90ea 373c 9e4f 3b3c
00000070: 92dd 3e3c f09c 3e3c c161 303c 8577 1c3c
00000080: 9578 023c 57c4 d53b 6f2c d53b a0a8 96b7
00000090: 440d 04bb fc4e b0bb b418 39bc 2abd a5bc
000000a0: 1006 acbc 40e6 ddbc c9d2 bfbc bbba d9bc
000000b0: 20a7 c3bc 6498 90bc 72b3 2ebc 33b0 23bb
000000c0: b84e 903b 9131 1e3c 06a0 503c d242 503c
000000d0: 8109 813c d81d 743c 74e5 3f3c 5552 353c
000000e0: 3ee3 3e3c 8858 3c3c 0a71 293c deb2 063c
000000f0: 6a05 c83b ac7e f13b b671 fc3a 0855 41bb
00000100: 5694 87bb 07b7 2abc 0e77 56bc cc5e 6abc
00000110: 66c4 38bc cf1a 93bc b239 88bc cd09 abbc
00000120: 4565 8abc 07ff 5bbc cca5 e5bb d07c 12bc
00000130: daf7 8d3b f776 053c d12c 853c 9607 d13c
00000140: 9468 be3c 9107 3e3c 5fb9 313c 54ca 313c
00000150: 4085 3f3c 3714 2c3c d3b0 123c 48c9 ca3b
00000160: 5c02 943b eef4 19ba 4924 58bb 5e60 31bb
00000170: 2020 06bc da5c 0ebc b7bc 1bbc 6cee e4bb
00000180: df61 e2bb 0e1a 68bc 1645 38bc 59f1 14bc
00000190: 4d3c a7bb edd8 34ba 1092 0fb8 145b feba
000001a0: 3d69 5e3b ea31 483c 5c1c 9f3c 3131 863c
000001b0: d84f a33c 2865 173c f557 2f3c 5c20 3f3c
000001c0: e2a0 313c de57 193c aa8f d93b 26ba af3b
000001d0: 23c2 843b e7df 63bb dac7 ccbb 91ca 4fbb
000001e0: 87a0 2cbc 3eec 4bbc 39b5 23bc 6d89 31bc
000001f0: 1dd5 aabb db05 31bc 5070 c8bb e834 c0bb
00000200: f1a9 0cbb b36c c63b c5f3 293c cdea 5f3b
00000210: 6c52 de3b 8193 283c 4f98 993c 27d3 5f3c
00000220: f425 053c 2ef4 813b d2c1 ca3b 516d 083c
00000230: 6167 2f3c 9ab3 f43b 6e42 8d3b c996 0d3b
00000240: b0bd bdbb d6a0 4fbc 96e1 33bc 2ebd 2fbc
00000250: 5ea3 82bc 483a 37bc 9e32 58bc 2f47 36bc
00000260: 41da 09bc 9e74 87bc aaf5 56bc 9ef2 0fbc
00000270: 564d e9ba 82c2 b2bb 45b4 3bbc e66d 18bc
00000280: ed55 8f3c 4553 303c 7a92 353c 251a d63b
00000290: 8274 4b3c db8e 9d3c c907 413c 7274 b73b
000002a0: 822a 243c 5eeb d63b e8c9 4b3b f646 12bb
000002b0: 6515 05bc 8b58 41bc 8ee5 4abc bbed 86bc
000002c0: 91a6 9ebc 8786 afbc ff1c 9abc ea9d 82bc
000002d0: 7c72 abbc e3f9 8dbc 14e7 1a3c 6436 1d3c
000002e0: 1c8c 94ba ea5e 1ebc 07e2 08bb d8ab 33b9
000002f0: 1ec4 553c b3c2 9a3c e3ca 613c da4d cb3c
00000300: f5e4 0d3d 3aa4 e03c d9cc 243b e23d dc3b
00000310: 7879 153c 094c 793b 6c90 663b f9bb 52bb
00000320: 6ba4 40bc 039f 90bc e41c bebc 8044 fcbc
00000330: c676 f4bc 1e52 d8bc 26e5 c8bc 0f86 acbc
00000340: 7f93 d1bc 13de f3bb 436a d03c 4d28 033c
00000350: 1d6a 69bc 9395 35bc acfd 05bc 7ed1 a1bc
00000360: 5921 c5bc 8b71 8bbc 5057 f6bb a5d5 a23c
00000370: d053 da3c 6245 0bbb 45b0 b6bc e9ed 09bc
00000380: ac76 153c 5e6e 4b3b 1271 903a 61e1 e6bb
00000390: c917 8cbc 7511 cebc 0204 dcbc a9cd 0cbd
000003a0: e723 1dbd 842a 03bd 4083 e1bc 424a ccbc
000003b0: ec7f 5c39 162c cf3c 646f 383d 2a77 af3c
000003c0: 4cc8 1a3b eceb f13a f1d5 e03b 66ed 80bc
000003d0: ece8 1ebd 49ff 27bd 52aa 35bd abae 1bbd
000003e0: 34ed ecba dc10 80bc 9597 babc 2843 30bb
000003f0: e435 e73b 6c2d 1dbb 12d5 08bb 7fe7 48bc

fc1.bias f4 [128]
-0.011850123 -5.955698e-05 -0.019794535 -0.00033343962 -0.031193914 -0.010944077 -0.0003060852 -0.0128540415
-0.0022304296 0.0026751838 -0.017911607 -0.0011019609 -0.013968992 -0.029837286 -0.0016697393 -0.01568788
-0.0039077885 -0.00083686516 -0.037333846 -5.63701e-07 0.020644467 -3.204555e-05 -1.7743996e-05 -0.0012339634
0.010149591 -0.0052564004 -0.015625408 -1.868882e-06 -1.0484546e-05 -0.004136194 -0.0029598381 0.0018208533
0.003672305 -0.028938213 -0.005971738 0.008038933 -0.007603388 -0.03725989 -0.0023666276 -3.8418166e-06
-0.029579423 -0.0008594284 -0.0045966995 -0.004792585 -8.622397e-05 -0.02085289 -3.121787e-05 -2.9256316e-06
-0.0047065173 -0.011627046 -0.0015084184 -0.0023629111 0.01566721 -3.980287e-06 -0.006143561 -5.7652927e-05
-0.0074219303 -0.0011039126 -0.0097087985 -0.003938927 -0.00074853894 -0.00027374213 -0.009116791 -0.001425625
-0.0040143332 0.0034216268 -0.022544816 -0.026075983 -0.019068837 0.0024584616 -0.007822242 -0.00033355353
-0.0051177004 -0.0010090558 -0.009510958 -0.005129275 -0.00058278913 -0.014901947 -0.011997381 -0.0015899378
0.0052095433 -0.005179979 -0.026072612 -0.002166834 0.011505415 -0.00059038936 -0.016024599 -0.031883784
-0.0075249416 -0.010406273 -0.01238865 -0.0007772432 -1.0716131e-05 -0.0066325013 -1.6226509e-06 -4.457152e-06
-0.002545471 -0.016154096 0.001526764 -0.0034725477 -5.7396555e-06 -0.0023459394 -0.0011501547 -0.0013940126
-0.012234285 -0.0017634358 8.040006e-05 -0.001307516 -0.0027952527 -0.0101587465 0.013433518 -0.0041520935
-0.0018045704 -0.014549776 -0.01887784 -0.012532984 -5.84941e-05 0.015146835 -0.002703099 -9.089507e-05
-0.024206141 -0.0036380196 -0.0096044885 -0.0044096643 -4.478868e-06 -0.01349617 0.04643722 -0.0022693663
00000000: 0527 42bc d2cc 79b8 2628 a2bc 82d1 aeb9
00000010: 618a ffbc c94e 33bc 0f7a a0b9 c299 52bc
00000020: 662c 12bb 2352 2f3b 5dbb 92bc ac6f 90ba
00000030: 33de 64bc 536d f4bc 27db daba de83 80bc
00000040: e80c 80bb 1261 5bba 60eb 18bd 3d51 17b5
00000050: 961e a93c a668 06b8 f1d8 94b7 f1bc a1ba
00000060: 784a 263c e23d acbb db00 80bc 4cd6 fab5
00000070: c8e6 2fb7 e988 87bb d8f9 41bb b3a9 ee3a
00000080: 0eab 703b d50f edbc 92ae c3bb bbb5 033c
00000090: d725 f9bb d49d 18bd 6c19 1bbb f4e8 80b6
000000a0: 8c50 f2bc 434b 61ba e99f 96bb 1e0b 9dbb
000000b0: 24d3 b4b8 aed3 aabc efef 02b8 f855 44b6
000000c0: 2139 9abb 5e7f 3ebc 1fb6 c5ba 12db 1abb
000000d0: 8558 803c 688e 85b6 ed4f c9bb 5cd0 71b8
000000e0: aa33 f3bb 29b1 90ba a711 1fbc 1d12 81bb
000000f0: 9939 44ba 0c85 8fb9 985e 15bc 0adc baba
00000100: ab8a 83bb 5f3d 603b e8af b8bc 4d9d d5bc
00000110: 4036 9cbc 241e 213b dc28 00bc cce0 aeb9
00000120: 62b2 a7bb 4b42 84ba d9d3 1bbc 7a13 a8bb
00000130: 51c6 18ba 4c27 74bc aa90 44bc 7665 d0ba
00000140: d1b4 aa3b d0bc a9bb 3b96 d5bc 7101 0ebb
00000150: 3581 3c3c 5cc4 1aba 0546 83bc 9298 02bd
00000160: c993 f6bb 137f 2abc c4f9 4abc e9bf 4bba
00000170: 6fc9 33b7 7455 d9bb dcc9 d9b5 a58e 95b6
00000180: ebd1 26bb 9855 84bc b31d c83a af93 63bb
00000190: 4497 c0b6 55be 19bb cac0 96ba 4db7 b6ba
000001a0: 4f72 48bc 1623 e7ba 749c a838 f560 abba
000001b0: 8f30 37bb df70 26bc 4218 5c3c 490e 88bb
000001c0: 5687 ecba 2f62 6ebc b3a5 9abc 2557 4dbc
000001d0: 9057 75b8 6e2a 783c 7a26 31bb eb9e beb8
000001e0: f54b c6bc d76b 6ebb 255c 1dbc f27e 90bb
000001f0: 2f49 96b6 0a1f 5dbc f434 3e3d a6b9 14bb

fc2.weight f4 [10, 128]
-0.059111 0.0002819421 -0.098688714 0.00010912479 -0.11892539 0.03712155 0.0029930775 -0.2678998
-0.058244552 -0.2920397 -0.08826001 -0.0053165006 -0.06411623 -0.06860361 0.0012645758 -0.19006854
-0.013164083 0.0026250365 -0.22852376 2.7757042e-05 -0.0435308 0.00038398596 0.00032686786 -0.008594819
0.005414849 -0.12885521 -0.12133554 -5.0990925e-06 4.857869e-05 -0.3067646 0.016320856 0.0029041588
-0.11170877 -0.08306328 -0.019239245 0.09474319 -0.0042547476 -0.20976004 0.00090393383 5.6452536e-05
-0.020626737 -0.005612447 -0.027167106 -0.1315381 3.7745198e-05 -0.12203139 0.00014248777 4.589913e-06
-0.0073853573 -0.03793488 -0.018298412 -0.06565503 -0.032307845 -3.341992e-06 -0.058669858 -0.00014926825
0.07380882 -0.3040965 -0.16029087 -0.035723303 0.0037547394 -0.0015831897 0.09078593 0.0030303176
0.037509244 -0.0025315683 0.029198505 -0.16683012 -0.3615407 0.07676061 -0.048841283 0.00011722244
-0.039372373 -0.01005999 -0.10377631 -0.10943519 -0.06595638 -0.07356922 -0.03933261 0.0033957374
0.042625144 -0.041822493 -0.09400882 -0.006660913 0.007262997 -0.0020202314 -0.122014396 -0.2108368
-0.24108858 0.05916462 -0.1411987 0.0038371433 2.1513346e-05 -0.046182737 -1.9703179e-05 -1.994082e-05
-0.0026445568 -0.10328789 -0.006624165 0.07335296 2.2009695e-05 -0.007282481 0.0042606513 -0.002102034
-0.005664822 -0.20614263 0.0032771046 -0.0011116754 -0.00852722 0.123612866 0.022809843 -0.021284737
-0.011429536 0.095637485 -0.26388624 -0.03002242 -0.00011072813 -0.15658614 -0.005921157 0.0012635064
-0.01240545 0.037099343 0.05215062 0.0067263287 -1.7936523e-05 -0.26991373 0.057807505 -0.086381845
-0.058134645 -0.00032323378 -0.04182466 -0.001812282 -0.058987338 -0.05383087 0.0009354714 -0.13978024
-0.14086342 0.638167 -0.07522804 0.018792052 -0.01836369 -0.09907903 -0.0015155113 -0.20960523
0.0044949357 -0.00025232678 -0.30260825 4.8584366e-06 -0.16006003 0.00010816045 3.9546856e-05 -0.003550135
-0.109839246 0.023271017 -0.074604794 -4.0798436e-06 3.5423184e-07 -0.17312996 -0.062020484 -0.12854707
-0.15625301 -0.021963803 -0.014021443 -0.25670877 -0.01886248 0.03494885 -0.00094925705 7.5701894e-07
-0.056129158 -0.0050581098 -0.019456688 0.17280878 -0.0003060203 -0.11450142 -4.534875e-06 -6.433728e-06
-0.02523828 -0.18007386 -0.011676902 0.049096018 -0.17698114 -1.645055e-06 -0.02357256 -8.089753e-05
0.032192655 -0.22893836 -0.18532366 0.009006081 -0.0058090426 0.001773712 -0.2405618 -0.00096902554
-0.06580751 0.13025625 -0.2604075 -0.15674368 0.109367974 -0.14364897 -0.028160132 -0.00072632305
-0.07957589 -0.008126618 -0.038396906 -0.03415144 -0.067166865 -0.10411221 -0.0019298551 -0.0019961926
-0.08554212 -0.0332923 0.055907328 -0.014271926 -0.1691677 -0.0030862684 -0.1802803 -0.13723916
-0.17513165 0.15615708 -0.11161737 4.9541944e-05 -1.3030349e-05 -0.028118946 1.5718634e-06 -8.397197e-07
-0.006575328 0.085904926 -0.0054005845 -0.054546308 6.6789366e-06 -0.0076878676 -0.005376823 -0.0013286173
-0.015705867 -0.16970377 -0.0054671178 -0.0058383425 -0.0048640864 -0.13213833 -0.1490182 -0.0043840255
-0.011597984 -0.13750798 -0.24114418 -0.20151287 -0.0002464358 -0.063875414 -0.0068950476 0.00030117476
-0.032835927 -0.0059303963 -0.07035358 -0.0034360765 -3.9028623e-06 -0.0002416356 -0.38852352 -0.048807666
00000000: 601e 72bd a1d1 9339 4f1d cabd edd9 e438
00000010: 288f f3bd c40c 183d 8227 443b 2a2a 89be
00000020: d791 6ebd 3a86 95be aac1 b4bd 0a36 aebb
00000030: 5f4f 83bd 0d80 8cbd 1fc0 a53a 54a1 42be
00000040: 2aae 57bc ce08 2c3b 2202 6abe cbd7 e837
00000050: 5a4d 32bd b951 c939 765f ab39 49d1 0cbc
00000060: 0c6f b13b 9ff2 03be c57e f8bd df18 abb6
00000070: f9c0 4b38 4010 9dbe 51b3 853c b353 3e3b
00000080: 91c7 e4bd 151d aabd 9f9b 9dbc b808 c23d
00000090: 696b 8bbb 56cb 56be f9f5 6c3a 73c7 6c38
000000a0: 67f9 a8bc 9ee8 b7bb 8d8d debc ecb1 06be
000000b0: 9950 1e38 98eb f9bd c568 1539 0d03 9a36
000000c0: de00 f2bb 9b61 1bbd 8de6 95bc 2576 86bd
000000d0: 3b55 04bd fc46 60b6 ce4f 70bd e484 1cb9
000000e0: 1429 973d 89b2 9bbe 4a23 24be 9952 12bd
000000f0: 1312 763b 0883 cfba f9ed b93d 4b98 463b
00000100: 4ba3 193d abe8 25bb b431 ef3c 84d5 2abe
00000110: dd1b b9be ab34 9d3d cc0d 48bd 51d5 f538
00000120: ed44 21bd a8d2 24bc ad88 d4bd 8f1f e0bd
00000130: 2314 87bd 76ab 96bd 3b1b 21bd 058b 5e3b
00000140: b497 2e3d 104e 2bbd b287 c0bd ca43 dabb
00000150: 6ffe ed3b dc65 04bb afe2 f9bd 9ae5 57be
00000160: eddf 76be 9a56 723d 6496 10be 9578 7b3b
00000170: 8f77 b437 1c2a 3dbd 4148 a5b7 9646 a7b7
00000180: 4d50 2dbb 9a88 d3bd 860f d9bb 143a 963d
00000190: 76a1 b837 e1a1 eebb ef9c 8b3b 47c2 09bb
000001a0: f99f b9bb 0e17 53be b1c4 563b a3b5 91ba
000001b0: c1b5 0bbc be28 fd3d b5db ba3c 545d aebc
000001c0: f342 3bbc 96dd c33d 191c 87be 94f1 f5bc
000001d0: b636 e8b8 1e58 20be 4406 c2bb 3d9c a53a
000001e0: 3b40 4bbc 7bf5 173d e39b 553d 8968 dc3b
000001f0: 6476 96b7 2232 8abe 90c7 6c3d f7e8 b0bd
00000200: 981e 6ebd b477 a9b9 5650 2bbd 188a edba
00000210: b59c 71bd c27d 5cbd 6c3a 753a 8d22 0fbe
00000220: 803e 10be ea5e 233f 2911 9abd caf1 993c
00000230: 736f 96bc f2e9 cabd 1fa4 c6ba c1a2 56be
00000240: 414a 933b ba4a 84b9 78ef 9abe a705 a336
00000250: c7e6 23be 33d4 e238 1ddf 2538 62a9 68bb
00000260: 66f3 e0bd dca2 be3c 66ca 98bd 97e5 88b6
00000270: 412d be34 fb48 31be 3109 7ebd d8a1 03be
00000280: ca00 20be 6fed b3bc 32ba 65bc 556f 83be
00000290: 7d85 9abc 8626 0f3d 90d7 78ba f235 4b35
000002a0: b0e7 65bd 80be a5bb a263 9fbc c9f4 303e
000002b0: 5971 a0b9 b87f eabd 482a 98b6 4de1 d7b6
000002c0: 82c0 cebc 4865 38be 7a50 3fbc e818 493d
000002d0: 8b3a 35be a9cb dcb5 3e1b c1bc 88a7 a9b8
000002e0: 72dc 033d d16e 6abe 7cc5 3dbe 3e8e 133c
000002f0: c859 bebb e67b e83a d555 76be 3406 7eba
00000300: 16c6 86bd e561 053e 2254 85be 6a81 20be
00000310: 51fc df3d b718 13be 14b0 e6bc b766 3eba
00000320: aff8 a2bd 8225 05bc 1346 1dbd 61e2 0bbd
00000330: c88e 89bd c838 d5bd 31f3 fcba 8ed2 02bb
00000340: b530 afbd 825d 08bd 15ff 643d ccd4 69bc
00000350: 4c3a 2dbe fe42 4abb 669b 38be 6c88 0cbe
00000360: b655 33be a4e7 1f3e a697 e4bd 42cb 4f38
00000370: ec9c 5ab7 b459 e6bc d1f8 d235 1969 61b5
00000380: d975 d7bb ecee af3d 63f7 b0bb f36b 5fbd
00000390: a11b e036 82ea fbbb 0f30 b0bb 0025 aeba
000003a0: 97a9 80bc d3c6 2dbe 8225 b3bb 914f bfbb
000003b0: ea62 9fbb 454f 07be 3a98 18be dfa7 8fbb
000003c0: 7805 3ebc e4ce 0cbe 80ee 76be 6459 4ebe
000003d0: 0e34 81b9 1dd1 82bd daef e1bb fee6 9d39
000003e0: f77e 06bd c553 c2bb 8a15 90bd cc2f 61bb
000003f0: 55f5 82b6 905f 7db9 8eec c6be 8cea 47bd

fc2.bias f4 [10]
-0.07993347 -0.034650046 0.037539214 0.035781987 -0.07445503 -0.122687496 0.16121328 0.046666518
0.11656895 -0.104551114
00000000: 29b4 a3bd 35ed 0dbd b8c2 193d 2290 123d
00000010: e17b 98bd 9543 fbbd 1815 253e 6425 3f3d
00000020: b4bb ee3d e51e d6bd
