exercises/w4/checkpoint.pt (torch, 409192 bytes, 4 tensors)

fc1.weight f4 [128, 784]
0.019428737 0.025741927 -0.038414456 0.022454819 -0.0053347447 0.029854182 0.108133316 0.1719986
0.19922186 0.12126306 0.033343952 -0.0029502998 -0.026347581 -0.09108652 -0.06345175 -0.047581516
-0.009635263 0.062006656 0.09549705 0.23561363 0.21025026 0.09266657 0.06113828 0.037745364
0.030544024 -0.02240024 0.0055624004 -0.034903787 0.0061940714 0.019359246 0.008942096 -0.011834656
0.00185143 0.059822746 0.17788626 0.11841921 0.13653697 0.096948884 -0.010553539 0.022468716
-0.005293076 -0.011653615 -0.018686283 -0.037274256 0.009544675 -0.01456998 0.010483123 0.13052224
0.13884845 0.15769814 -0.017748307 0.033896465 -0.016511643 -0.035485517 -0.005882477 0.0031987717
0.018537028 0.021369599 -0.0043120594 0.008181088 0.030562054 0.044517025 0.04727288 0.08236572
0.034422163 -0.03287584 -0.06363453 0.034900755 -0.048998717 -0.013560606 -0.033233665 -0.0810316
-0.07468413 -0.03276487 -0.08929522 -0.037175547 0.022483202 0.03289672 -0.05601062 -0.04841358
-0.034440536 -0.018977389 -0.025651861 -0.014278654 0.022696383 0.016883602 -0.049586724 -0.027964193
-0.0009807298 0.023223957 0.09451791 0.07969513 0.007027802 -0.04485944 -0.04184285 -0.002565703
0.033660226 0.0087767895 -0.025350176 -0.04482692 -0.082658306 0.029970298 -0.009912572 0.007349594
0.035212077 0.020951744 0.028185932 -0.010380769 -0.061107244 -0.008067606 -0.027023606 0.015130305
-0.006946397 -0.025084684 -0.034015737 0.0072961054 -0.050180312 0.0413585 0.040412795 0.0038353319
0.010950623 -0.041275598 -0.017003942 -0.04976902 0.004276193 -0.0006272726 0.008851548 0.011416204
-0.046260323 0.01394215 0.020575022 -0.050114296 0.026416946 -0.024555556 -0.015485499 0.012618913
-0.05754906 -0.0633576 -0.052213315 -0.014626657 -0.0019063638 -0.011432029 -0.0054005287 -0.013488341
-0.058079176 0.049537126 0.016451474 0.053880353 0.006800667 -0.03257523 -0.051476505 -0.01714565
-0.030743338 -0.035934284 0.0032569373 -0.029216038 -0.05918387 0.0031817234 -0.0265296 0.022187566
0.035148136 0.05393187 -0.036996964 -0.08859905 -0.088976 -0.062779315 -0.03478275 -0.029883757
-0.010673265 -0.03974096 -0.022807652 -0.032273017 -0.033170503 0.0653732 -0.016260598 0.027471118
0.041833263 -0.0177697 -0.01354698 0.02034213 -0.012521456 0.035256706 -0.053503826 -0.030885832
-0.038879994 -0.048710853 -0.09435458 0.008362395 0.010934996 -0.05134012 -0.031088011 -0.06906652
-0.09209514 -0.030482678 -0.027003448 -0.017335866 -0.013353721 -0.021665297 0.021932565 -0.050215803
-0.026858876 0.070409834 -0.01682334 0.019234998 -0.014224372 -0.054937057 -0.034036648 0.028707862
0.021816382 0.013653381 0.012283077 -0.03103904 -0.09634737 -0.06335893 -0.03602529 -0.039731577
0.06691898 0.030462293 -0.075816326 -0.08051296 -0.04675529 -0.03070797 -0.020797381 0.0016121066
0.020422475 0.01906293 -0.043842774 -0.07204183 -0.0021143593 0.04337553 -0.046995826 0.050124317
0.04029143 -0.02554711 0.02099891 0.030401906 -0.0143747125 -0.005088895 -0.045313034 -0.03130212
-0.04421682 -0.01074534 0.018925223 -0.008757273 0.0292704 -0.030329768 -0.026429694 -0.10506057
-0.0702402 -0.018871471 0.0016097083 -0.0011351189 -0.024665691 -0.0054188645 -0.035296194 -0.055153172
00000000: 0429 9f3c bce0 d23c 7a58 1dbd 2bf3 b73c
00000010: 15cf aebb c290 f43c 0075 dd3d 6720 303e
00000020: d100 4c3e c458 f83d ab93 083d d159 41bb
00000030: e2d6 d7bc 928b babd fef2 81bd d6e4 42bd
00000040: 39dd 1dbc b1fa 7d3d f593 c33d b344 713e
00000050: d84b 573e f8c7 bd3d 226c 7a3d e29a 1a3d
00000060: 7637 fa3c b580 b7bc cc44 b63b 46f7 0ebd
00000070: a3f7 ca3b 4897 9e3c de81 123c 25e6 41bc
00000080: afab f23a b208 753d d127 363e c585 f23d
00000090: 59d0 0b3e 238d c63d c0e8 2cbc 5010 b83c
000000a0: 8a71 adbb ceee 3ebc fa13 99bc e4ac 18bd
000000b0: 4561 1c3c edb6 6ebc 68c1 2b3c 9fa7 053e
000000c0: 4a2e 0e3e 9f7b 213e e664 91bc 05d7 0a3d
000000d0: 6d43 87bc 4359 11bd cbc1 c0bb 7ca2 513b
000000e0: f7da 973c 4c0f af3c 2d4c 8dbb f809 063c
000000f0: 465d fa3c 7c57 363d 35a1 413d 5caf a83d
00000100: 41fe 0c3d d1a8 06bd d252 82bd 18f4 0e3d
00000110: e1b2 48bd 4e2d 5ebc 0620 08bd e5f3 a5bd
00000120: fef3 98bd 7534 06bd 6ae0 b6bd 6345 18bd
00000130: b12e b83c b6be 063d 646b 65bd 514d 46bd
00000140: 8511 0dbd 7876 9bbc da23 d2bc 04f1 69bc
00000150: c4ed b93c 7b4f 8a3c 731b 4bbd 2a15 e5bc
00000160: d58b 80ba 2b40 be3c 9b92 c13d 3337 a33d
00000170: 7a49 e63b 88be 37bd 6963 2bbd 5a25 28bb
00000180: 4edf 093d 86cc 0f3c 2cab cfbc 6f9c 37bd
00000190: c248 a9bd 4584 f53c 5768 22bc ddd4 f03b
000001a0: 8a3a 103d fea2 ab3c 2fe6 e63c 1a14 2abc
000001b0: 974b 7abd fe2d 04bc 9c60 ddbc 19e5 773c
000001c0: 9a9e e3bb 657e cdbc 1654 0bbd 2b14 ef3b
000001d0: df89 4dbd 8867 293d e387 253d 315a 7b3b
000001e0: 3e6a 333c 9a10 29bd da4b 8bbc 9ada 4bbd
000001f0: 4f1f 8c3b 8d6f 24ba 1506 113c 080b 3b3c
00000200: 777b 3dbd 9e6d 643c f38c a83c a644 4dbd
00000210: 5a68 d83c bc28 c9bc e4b6 7dbc 8fbf 4e3c
00000220: 90b8 6bbd a1c1 81bd a1dd 55bd a5a4 6fbc
00000230: f4de f9ba 684d 3bbc ebf6 b0bb 34fe 5cbc
00000240: 6ee4 6dbd 71e7 4a3d 3ec5 863c a5b1 5c3d
00000250: 21d8 de3b 9b6d 05bd 07d9 52bd 0975 8cbc
00000260: 74d9 fbbc d42f 13bd 5772 553b 7956 efbc
00000270: c96a 72bd 7684 503b 9b54 d9bc b3c2 b53c
00000280: 7ef7 0f3d aae7 5c3d 218a 17bd 6b73 b5bd
00000290: 0d39 b6bd 7192 80bd 5b78 0ebd c8ce f4bc
000002a0: ebde 2ebc 6bc7 22bd 1dd7 babc b630 04bd
000002b0: cbdd 07bd 62e2 853d f234 85bc 1c0b e13c
000002c0: 5b59 2b3d c391 91bc 27f4 5dbc 8aa4 a63c
000002d0: cb26 4dbc 5669 103d d426 5bbd 4904 fdbc
000002e0: a140 1fbd 0885 47bd f93c c1bd 6d02 093c
000002f0: b328 333c 054a 52bd 49ac febc bf72 8dbd
00000300: 609c bcbd cfb6 f9bc 5636 ddbc f203 8ebc
00000310: 91c9 5abc 6c7b b1bc ecab b33c 16af 4dbd
00000320: 2507 dcbc 0833 903d 1ad1 89bc b792 9d3c
00000330: 570d 69bc ae05 61bd 036a 0bbd c02c eb3c
00000340: 45b8 b23c 6eb2 5f3c f63e 493c 9645 febc
00000350: c551 c5bd 54c2 81bd 418f 13bd 94bd 22bd
00000360: d10c 893d 0f8c f93c 9745 9bbd fbe3 a4bd
00000370: 7a82 3fbd 488f fbbc 455f aabc 524d d33a
00000380: 094d a73c dd29 9c3c 7b94 33bd ab8a 93bd
00000390: 1091 0abb 8aaa 313d b27e 40bd 284f 4d3d
000003a0: a008 253d 2c48 d1bc e805 ac3c 6b0d f93c
000003b0: ea83 6bbc bfc0 a6bb 299a 39bd a736 00bd
000003c0: b21c 35bd 390d 30bc 1209 9b3c aa7a 0fbc
000003d0: 7ac8 ef3c 2276 f8bc 1683 d8bc ff29 d7bd
000003e0: 18da 8fbd 5898 9abc d9fc d23a 45c8 94ba
000003f0: b40f cabc bb90 b1bb be92 10bd 4be8 61bd

fc1.bias f4 [128]
-0.0122874975 0.0019648867 -0.029495215 0.015317748 -0.049452893 -0.008919895 0.0076481486 -0.055062167
-0.06393801 -0.09515004 0.019268777 -0.0022941297 0.026455646 -0.027848847 -0.046190683 -0.14111549
-0.07496257 -0.06346621 0.0038927523 -0.05012258 0.0042246697 -0.03758097 -0.025160171 -0.096254505
-0.06215731 -0.061377235 0.004105432 0.013378485 -0.05259777 -0.060867336 -0.03497651 0.009127084
-0.04731318 0.004147606 -0.045975037 -0.06976703 -0.007899288 -0.017218975 -0.02496917 -0.08750976
-0.06113582 -0.015422975 -0.097538084 -0.021238053 -0.054068875 -0.05281519 -0.00551685 0.012756068
-0.012897793 -0.013741397 -0.06239968 -0.03927466 -0.06260964 -0.015043423 -0.05689185 -0.0384456
-0.004745512 -0.00058308453 0.0032515035 -0.029189741 0.031052463 -0.025297042 -0.05527452 -0.039407287
-0.037376963 -0.05011264 0.05638115 0.001776818 -0.07499999 -0.036314204 -0.015176682 0.012991876
-0.028295187 -0.05208947 -0.02861071 -0.0317103 -0.060621276 -0.026692921 -0.029600596 -0.06021982
-6.349425e-05 -0.044699118 0.0019793517 -0.0684416 0.0044587483 -0.016574642 0.040441412 -0.0020122603
0.080958284 -0.051196758 -0.010894943 -0.06181598 -0.0054157465 -0.017528476 0.013874416 -0.041859597
0.0060045533 -0.02079773 0.0006864921 -0.08707223 -0.035097077 -0.007976577 -0.01852887 -0.011445657
-0.062088728 -0.0339463 -0.035313174 0.07518281 -0.01910099 -0.04178097 -0.034199353 -0.061314587
-0.0381579 0.023540735 0.015373323 -0.020260775 -0.041282874 0.0069824215 -0.022271184 -0.039304808
-0.008287735 0.01223318 -0.07060964 -0.066384114 -0.048599593 -0.0902687 -0.032158893 -0.021613788
00000000: 8051 49bc 54c5 003b f39f f1bc 4bf7 7a3c
00000010: 1e8f 4abd c024 12bc 529d fa3b de88 61bd
00000020: eef1 82bd 06de c2bd 8ed9 9d3c 1c59 16bb
00000030: 83b9 d83c 4423 e4bc 7132 3dbd 9480 10be
00000040: fa85 99bd 93fa 81bd 8c1d 7f3b 564d 4dbd
00000050: 196f 8a3b 81ee 19bd b41c cebc 1521 c5bd
00000060: aa98 7ebd b266 7bbd dc86 863b 6f31 5b3c
00000070: c270 57bd 0750 79bd 8743 0fbd c489 153c
00000080: 77cb 41bd a4e8 873b 5250 3cbd 04e2 8ebd
00000090: 046c 01bc cf0e 8dbc 258c ccbc 5138 b3bd
000000a0: 8e69 7abd a5b0 7cbc 0cc2 c7bd 6dfb adbc
000000b0: 5377 5dbd be54 58bd b1c6 b4bb d4fe 503c
000000c0: 4451 53bc 9923 61bc cf96 7fbd 77de 20bd
000000d0: 7c39 80bd b078 76bc 6e07 69bd 2279 1dbd
000000e0: 3d80 9bbb 24da 18ba 2d17 553b 531f efbc
000000f0: bc61 fe3c be3b cfbc 8967 62bd 8969 21bd
00000100: 9618 19bd e942 4dbd ecef 663d 1ee4 e83a
00000110: 9899 99bd 34be 14bd 9ea7 78bc e1db 543c
00000120: 4fcb e7bc c55b 55bd 0261 eabc a9e2 01bd
00000130: 044e 78bd 1dab dabc f37c f2bc 0fa9 76bd
00000140: 3728 85b8 6c16 37bd 03b8 013b 1c2b 8cbd
00000150: b11a 923b 8bc7 87bc e5a5 253d 20e0 03bb
00000160: 75cd a53d b1b3 51bd b480 32bc c132 7dbd
00000170: 9376 b1bb e197 8fbc 8551 633c f874 2bbd
00000180: d8c1 c43b 0060 aabc b4f5 333a ed52 b2bd
00000190: f4c1 0fbd 30b0 02bc dbc9 97bc 9186 3bbc
000001a0: c050 7ebd 470b 0bbd 8ca4 10bd 72f9 993d
000001b0: ae79 9cbc 8622 2bbd 9f14 0cbd 0125 7bbd
000001c0: 754b 1cbd 80d8 c03c 64e0 7b3c edf9 a5bc
000001d0: 3b18 29bd cccc e43b 0f72 b6bc 14fe 20bd
000001e0: 48c9 07bc ad6d 483c c99b 90bd 65f4 87bd
000001f0: 5e10 47bd ccde b8bd 0bb9 03bd 660f b1bc

fc2.weight f4 [10, 128]
-0.3242978 0.00500658 -0.18227877 0.047107175 0.015565205 -0.390023 -0.048750613 -0.28753266
-0.026763672 -0.13436 -0.28593704 -0.06577719 -0.19359727 -0.029371653 -0.58434033 -0.345077
-0.3917821 -0.28015527 -0.14514987 -0.29628786 -0.17089616 0.05209814 -0.234115 -0.11757997
-0.37146837 0.032243356 -0.2234025 -0.020186594 -0.10958127 -0.22472607 -0.11856333 -0.00747639
-0.28766027 -0.4987493 -0.11438965 -0.1620449 0.02586504 0.05571559 -0.009021678 0.07075007
-0.0699373 -0.17049602 -0.07032261 0.08300846 -0.056820463 0.04695901 0.06123173 -0.28822538
-0.14046754 -0.06736909 0.01564375 0.0707951 -0.20814386 -0.18695913 0.061242346 -0.26546606
0.015438707 -0.1259024 0.07004715 -0.23350729 -0.13534182 -0.019043941 0.011814702 -0.1378362
-0.00296651 -0.34089208 -0.051245697 -0.12560393 -0.2161681 -0.16262111 -0.28844082 -0.19984837
-0.20731026 -0.22765821 -0.35068187 0.040614054 -0.08499235 -0.22086258 -0.08844166 -0.1422664
-0.21763916 0.011345411 -0.28760266 -0.17053248 -0.12389561 -0.20757788 0.08995862 -0.12573121
-0.18380351 -0.12591872 -0.16895886 -0.3416466 0.041529663 -0.23268639 -0.1298649 -0.024615454
-0.2685581 0.04907891 0.008019924 -0.19097517 -0.3786743 -0.09255032 -0.11561413 -0.22431426
0.086686656 -0.17487282 -0.110149436 -0.12612276 -0.3638068 -0.18592085 -0.055326674 -0.17886202
-0.026880184 -0.0041215573 -0.03330557 -0.05107767 0.06315317 -0.15263027 -0.059019096 0.03822831
-0.06116885 -0.02549332 -0.45666024 -0.25243685 -0.26084298 0.061715625 -0.34363878 -0.12986948
0.38091817 -0.08237273 -0.09436117 -0.2878627 -0.32439893 -0.28532547 0.059254654 -0.24022056
-0.2918548 -0.015815571 -0.27757284 -0.077978045 -0.200091 0.002327133 -0.21770789 -0.5847293
0.031632535 -0.25452068 -0.40734518 -0.24300425 -0.11405106 -0.24368006 -0.13656616 -0.030947989
0.124386765 -0.3049909 -0.33784068 0.06938126 -0.012551242 -0.47526628 -0.14781053 -0.19326252
-0.14344127 -0.22776689 -0.30769685 -0.06059912 -0.33586165 0.056014404 -0.15998237 -0.20623025
-0.048182845 0.21834876 -0.30817258 -0.058400955 -0.29927316 -0.3768544 -0.22457123 0.09173513
0.004165611 0.05371054 0.08504012 0.007028418 -0.29004925 -0.12596633 0.010968034 -0.11022126
-0.37725106 -0.2535496 -0.024141183 -0.18437997 -0.015206599 -0.09638 -0.21698965 -0.24848258
-0.22613676 -0.3190293 -0.19573212 -0.2076978 -0.016747743 -0.2033059 -0.34161234 -0.21365513
-0.17597748 -0.17764795 0.17830706 -0.0051672948 -0.2599042 -0.037335515 -0.4024667 -0.08943063
0.11852455 -0.005794614 -0.066693805 -0.14079878 -0.16679218 -0.36499548 -0.26036263 -0.098727085
-0.17259718 -0.10553902 -0.23752628 -0.075415865 -0.30646193 0.42396548 -0.14414795 -0.0013637212
-0.18538593 -0.447793 -0.29687494 -0.30581325 -0.2722323 -0.09782993 4.8472393e-05 -0.14665079
-0.29124936 -0.13926768 -0.38363242 -0.41918305 0.050114147 -0.15120478 -0.17060441 -0.31808573
-0.27009505 -0.17207554 -0.36042857 -0.30070254 0.06311984 -0.0022312845 -0.2999466 -0.48861894
-0.26451296 -0.036111128 -0.22375868 -0.26552463 0.12459183 0.03685927 0.08728792 -0.012412338
00000000: 5c0a a6be 3d0e a43b 49a7 3abe 74f3 403d
00000010: 3405 7f3c 18b1 c7be b9ae 47bd 7b37 93be
00000020: 7d3f dbbc ab95 09be 5766 92be 31b6 86bd
00000030: 5d3e 46be d29c f0bc 5497 15bf efad b0be
00000040: aa97 c8be 8370 8fbe 2ba2 14be 0bb3 97be
00000050: 67ff 2ebe dc64 553d d8bb 6fbe c4cd f0bd
00000060: 1a31 bebe 9c11 043d a0c3 64be 5b5e a5bc
00000070: 256c e0bd 971e 66be 55d1 f2bd 81fc f4bb
00000080: 3548 93be 115c ffbe 1f45 eabd 19ef 25be
00000090: ece2 d33c 0836 643d a9cf 13bc 6ae5 903d
000000a0: 4a3b 8fbd 8296 2ebe 4d05 90bd 5700 aa3d
000000b0: 93bc 68bd 1758 403d 1fce 7a3d 4792 93be
000000c0: b9d6 0fbe cef8 89bd 5227 803c 05fd 903d
000000d0: aa23 55be 3772 3fbe 41d9 7a3d 2beb 87be
000000e0: a1f2 7c3c 8fec 00be e174 8f3d 891c 6fbe
000000f0: 0c97 0abe 0a02 9cbc 7492 413c ef24 0dbe
00000100: c769 42bb 6889 aebe 02e7 51bd 519e 00be
00000110: 2c5b 5dbe 2686 26be 84ae 93be 0da5 4cbe
00000120: 2449 54be 3c1f 69be 938c b3be ec5a 263d
00000130: 7810 aebd cd29 62be e720 b5bd 48ae 11be
00000140: cddc 5ebe 1ae2 393c a840 93be 11a0 2ebe
00000150: fbbc fdbd 4c8f 54be 3a3c b83d afbf 00be
00000160: fd36 3cbe d6f0 00be 8d03 2dbe 4eec aebe
00000170: 021b 2a3d 5745 6ebe 4efb 04be 59a6 c9bc
00000180: 7380 89be f806 493d 0066 033c ff8e 43be
00000190: 99e1 c1be 068b bdbd 1ac7 ecbd a3b2 65be
000001a0: c688 b13d dc11 33be 0796 e1bd 5326 01be
000001b0: e344 babe 0962 3ebe 399e 62bd 9b27 37be
000001c0: d533 dcbc 210e 87bb 6c6b 08bd d236 51bd
000001d0: 7356 813d 1c4b 1cbe 02be 71bd 4a95 1c3d
000001e0: 308c 7abd 5ed7 d0bc 5fcf e9be 673f 81be
000001f0: 368d 85be 86c9 7c3d 6cf1 afbe 81fc 04be
00000200: b507 c33e 09b3 a8bd 6e40 c1bd bd62 93be
00000210: 9e17 a6be 2e16 92be 02b5 723d 61fc 75be
00000220: fe6d 95be a88f 81bc 071e 8ebe f4b2 9fbd
00000230: a8e4 4cbe d082 183b d1ee 5ebe d2b0 15bf
00000240: 1e91 013d 8950 82be 8c8f d0be 1bd6 78be
00000250: 9a93 e9bd 4487 79be 00d8 0bbe a386 fdbc
00000260: 7dbe fe3d c427 9cbe 74f9 acbe c317 8e3d
00000270: b9a3 4dbc 1a56 f3be a55b 17be 9ce6 45be
00000280: 45e2 12be b93b 69be 718a 9dbe c836 78bd
00000290: 0ff6 abbe 5c6f 653d 6bd2 23be 062e 53be
000002a0: 605b 45bd d196 5f3e ccc8 9dbe d735 6fbd
000002b0: 553a 99be 0ff3 c0be 00f6 65be a1df bb3d
000002c0: ae7f 883b 95ff 5b3d 8429 ae3d a54e e63b
000002d0: 5681 94be 51fd 00be 45b3 333c afbb e1bd
000002e0: 0d27 c1be 41d1 81be bbc3 c5bc 1ace 3cbe
000002f0: 1925 79bc e162 c5bd 8932 5ebe 3872 7ebe
00000300: 6590 67be cf57 a3be 006e 48be bbae 54be
00000310: 9032 89bc 6c2f 50be d0e7 aebe 69c8 5abe
00000320: 7133 34be 58e9 35be 2096 363e 6952 a9bb
00000330: 2a12 85be 20ed 18bd 1e10 cebe 6827 b7bd
00000340: 00bd f23d bfe0 bdbb c396 88bd 8e2d 10be
00000350: 92cb 2abe b0e0 babe 404e 85be 6d31 cabd
00000360: 51bd 30be d724 d8bd 173a 73be a273 9abd
00000370: 94e8 9cbe 0112 d93e 859b 13be e4be b2ba
00000380: cfd5 3dbe 2045 e5be feff 97be 8e93 9cbe
00000390: 0862 8bbe 0f5b c8bd d64e 4b38 a02b 16be
000003a0: a31e 95be 309c 0ebe 786b c4be 299f d6be
000003b0: 7e44 4d3d 6dd5 1abe ecb2 2ebe 22dc a2be
000003c0: e649 8abe 9234 30be 188a b8be aff5 99be
000003d0: fa44 813d be3a 12bb 9a92 99be 432c fabe
000003e0: 3e6e 87be 43e9 13bd ff20 65be d8f2 87be
000003f0: 002a ff3d bff9 163d 02c4 b23d 1e5d 4bbc

fc2.bias f4 [10]
-0.17003715 -0.064832516 0.05401107 -0.0004306082 -0.07959122 -0.13585675 0.047311872 0.071363136
0.18435182 -0.11935147
00000000: 381e 2ebe e9c6 84bd b63a 5d3d 41c3 e1b9
00000010: b900 a3bd 081e 0bbe 18ca 413d d626 923d
00000020: b9c6 3c3e 8b6e f4bd
