exercises/w4/checkpoint.pt (torch, 33640 bytes, 4 tensors)

conv1.weight f4 [4, 1, 3, 3]
0	0x3ea6c746	0.3257391
1	0x3c03cdc6	0.008044666
2	0xbdd4ccb0	-0.103906035
3	0x3ef9d84b	0.4879783
4	0x3ea8782c	0.32904184
5	0x3dac2a51	0.08406509
6	0x3dcac9c1	0.09901763
7	0xbe3f9bc1	-0.18711759
8	0x3bc75fa3	0.006084399
9	0xbf001993	-0.50039023
10	0x3ecbf6bd	0.39836684
11	0x3ecdb0a4	0.4017383
12	0xbf0aca11	-0.5421458
13	0x3ebab42d	0.36465588
14	0x3ebc3be7	0.36764452
15	0xbefb3f67	-0.4907181
16	0x3def45a0	0.11683202
17	0xbe603451	-0.21894957
18	0x3e2b1ba1	0.16709758
19	0x3ec32cac	0.3812002
20	0xbe598877	-0.21243463
21	0xbd58e02b	-0.05294816
22	0x3eba6a01	0.36409
23	0xbda2f0af	-0.07956063
24	0xbe1b6527	-0.15175305
25	0x3eebd80b	0.46063265
26	0xbdd21866	-0.1025856
27	0xbd91cbe8	-0.0711897
28	0xbf0f0f95	-0.5588315
29	0x3e0713ec	0.13191193
30	0x3f0a7563	0.5408537
31	0xbc4f8be9	-0.0126676345
32	0x3c29617d	0.010338184
33	0x3e7aa0f5	0.24475463
34	0x3e32d19d	0.17462774
35	0xbed6970f	-0.41912124

conv1.bias f4 [4]
0	0xbe972786	-0.2952234
1	0xbdd69cf9	-0.10479159
2	0xbe9c87d4	-0.3057238
3	0xbe5a93b7	-0.21345411

fc.weight f4 [10, 784]
0	0xbce95ee3	-0.028487628
1	0xbc88e8da	-0.016712595
2	0xbd465168	-0.04841748
3	0xbdbdc65d	-0.092663504
4	0xbd3c74fa	-0.046009995
5	0xbc5f8179	-0.0136417085
6	0xbc54a210	-0.012978092
7	0xbd1c35a5	-0.038137097
8	0xbcdabd77	-0.026701672
9	0x3da5b75f	0.08091616
10	0x3d8694f4	0.06571379
11	0xbca9ed2c	-0.020742975
12	0xbd48a825	-0.04898848
13	0xbd3d11ff	-0.04615974
14	0xbd336067	-0.04379311
15	0x3b67210e	0.0035267505
16	0xbcdc45ce	-0.026888754
17	0xbcdd57fa	-0.02701949
18	0xbc2a08fc	-0.010378119
19	0x3c38bb19	0.011275076
20	0xbbf8d05d	-0.007593198
21	0x390fa0ba	0.00013697418
22	0x3cc7bf0e	0.024383094
23	0x3cc39167	0.023873044
24	0x3d2b49ea	0.041818537
25	0x3dc05b69	0.09392435
26	0x3d1206d7	0.035651054
27	0xbc7320a4	-0.014839325
28	0xbcb76e55	-0.022391478
29	0xbc9c11f7	-0.019051535
30	0x3d4a5db3	0.049405765
31	0x3c453c9e	0.012038378
32	0xbca5b1c7	-0.020226372
33	0xbba201c8	-0.00494406
34	0x3c628495	0.013825555
35	0xbc3d7b03	-0.011564973
36	0xbc33cec5	-0.010974591
37	0x3c09ee67	0.008418656
38	0x3cbc12a9	0.022958117
39	0x3b07abde	0.0020701806
40	0x3d8585b2	0.06519641
41	0xbcbe9f8a	-0.023269434
42	0xbc2bcf02	-0.010486366
43	0x3c3f16c1	0.01166314
44	0x3d564f64	0.052321807
45	0x3a001dca	0.00048872514
46	0x3dc02496	0.09381978
47	0xbcf2aa75	-0.029622296
48	0x3c91acb9	0.017782556
49	0xbc305cd2	-0.010764318
50	0x3cfdd77f	0.030986546
51	0x3c98de0c	0.018660568
52	0x3d849bce	0.0647503
53	0xba11c4b1	-0.00055606203
54	0x3b8eec78	0.0043616854
55	0x3c954cf1	0.018225165
56	0xbc9fa815	-0.019489327
57	0x3d0201ff	0.031740185
58	0x3dafee41	0.08590365
59	0x3d9b13af	0.07572114
60	0x3de63fd4	0.11242643
61	0x3ccff8ac	0.02538713
62	0x3d7ae457	0.061252918
63	0x3d3e09d7	0.046396103
64	0x3cc1d090	0.02365902
65	0x3d4519a9	0.048120175
66	0x3da75ef0	0.08172405
67	0x3d3234c0	0.043507338
68	0x3d7769de	0.060403697
69	0x3c895a0e	0.016766574
70	0xbbc36a86	-0.0059636263
71	0x3c4391a9	0.011936584
72	0x3dd3bfc6	0.10339312
73	0x3d84ec4e	0.06490384
74	0x3d114228	0.035463482
75	0x3ce11b65	0.027478883
76	0x3d66fb05	0.056391735
77	0xbc864d8e	-0.016394403
78	0x3ce1f8f0	0.027584523
79	0x3d1817cb	0.037132066
80	0x3d4087ce	0.047004513
81	0x3d5ec1ea	0.05438415
82	0x3b7a1a9c	0.0038162833
83	0xbdacc1d6	-0.08435409
84	0xbc19f6a8	-0.009397186
85	0x3c90288e	0.017597463
86	0x3c243b23	0.010023865
87	0xbc7ec2de	-0.01554939
88	0x3b68ee8c	0.0035542576
89	0x3d2b04e9	0.04175273
90	0x3ce1f6e8	0.027583554
91	0xbd09bb70	-0.03362602
92	0x3b805f8a	0.003917639
93	0x3d456611	0.04819304
94	0xbd008fd2	-0.031387158
95	0xbd06507c	-0.0327916
96	0xbd07e5ae	-0.033178024
97	0xbd794c76	-0.060863934
98	0xbb66e1fe	-0.0035229917
99	0xbd04b861	-0.0324024
100	0xbd182f4b	-0.037154477
101	0xbd4d8aa7	-0.050181057
102	0xbd51d486	-0.05122807
103	0x3d23efe2	0.040023692
104	0x3a9ff0be	0.0012202484
105	0x3ca02568	0.019549087
106	0xbb965120	-0.0045873076
107	0x3caf4766	0.02139635
108	0xbd9246b5	-0.071423925
109	0xbd9c98ca	-0.0764633
110	0xbd1e22f0	-0.038607538
111	0xbd26997d	-0.04067372
112	0xbd4befd2	-0.049789257
113	0xbce25f68	-0.027633384
114	0xbc1b8409	-0.009491929
115	0xbd0074e9	-0.031361494
116	0xbd3de146	-0.046357416
117	0x3c0d23ae	0.008614464
118	0x3c22683c	0.009912547
119	0x3d11eaa8	0.035624176
120	0xbc8c5a15	-0.017132798
121	0x3b857095	0.0040722587
122	0xbd5e468b	-0.054266494
123	0xbd5ad5ac	-0.05342643
124	0xbd24bfaa	-0.040221848
125	0xbcf1f0ad	-0.029533708
126	0xbce3679c	-0.027759366
127	0xbcde3f59	-0.027129816
128	0xbc45aae3	-0.012064668
129	0xbd1171fe	-0.035509102
130	0x3d45e58b	0.048314612
131	0x3cbbe13c	0.022934549
132	0x3bfc4438	0.007698562
133	0x3af41fc6	0.0018625192
134	0x3b664eb8	0.0035142135
135	0x3c9b4c39	0.018957244
136	0xbd0ed7ae	-0.034873657
137	0xbd3e63eb	-0.046482008
138	0xbd19b2f4	-0.03752418
139	0xbd6aeaf1	-0.057352964
140	0xbd4e10ed	-0.05030911
141	0xbca3c1e4	-0.019989915
142	0xbcb6cb65	-0.022313783
143	0x3c19de3e	0.009391366
144	0x3d884d38	0.06655353
145	0xbc7d3bc7	-0.015456147
146	0x39e92d8e	0.00044475164
147	0xbb24143b	-0.0025036472
148	0xbc98f127	-0.018669678
149	0x3d0390f8	0.032120675
150	0xba93369b	-0.0011231484
151	0xbc28fa3c	-0.010313567
152	0xbd402b23	-0.04691614
153	0xbd562a59	-0.05228648
154	0xbc8babd4	-0.017049707
155	0xbca2338b	-0.019799968
156	0xbd175ee2	-0.03695572
157	0xbc14c6a5	-0.009080564
158	0x3d9d2f98	0.076750934
159	0xbb2e9270	-0.0026637577
160	0x3cf2ce22	0.029639307
161	0x3d0054fd	0.03133105
162	0x3cf44630	0.029818624
163	0x3cee3d5d	0.029081995
164	0x3cb90f89	0.022590416
165	0x3bae09c1	0.0053112213
166	0xbc06c148	-0.008224793
167	0x3bef6099	0.0073052165
168	0xbc6115c4	-0.0137380995
169	0xbd7a5d1f	-0.061123963
170	0xbd527941	-0.051385168
171	0xbcceee47	-0.025260104
172	0x3d80115a	0.062533095
173	0x3c8d2350	0.017228752
174	0xbabc837f	-0.0014382451
175	0x3c753460	0.0149661
176	0xbc729e0d	-0.01480819
177	0xbb9fdea2	-0.004878835
178	0x3bfc067e	0.0076912036
179	0x3bdf2d5d	0.0068108276
180	0xbd972075	-0.073792376
181	0xbd442619	-0.047887895
182	0x3b35cc08	0.002774002
183	0xbc9ccfdb	-0.019142082
184	0xbd2d016e	-0.04223769
185	0x3d3532a9	0.044237766
186	0x3d269704	0.040671363
187	0xbc9b5c44	-0.018964894
188	0x3cf0d9d1	0.029400738
189	0x3d56b4fc	0.052418694
190	0x3d28079c	0.041022882
191	0xbc7a57c2	-0.015279712
192	0x3c7ece73	0.015552151
193	0x3b9a53e5	0.004709708
194	0xbd186e34	-0.037214473
195	0xbd87a6b4	-0.06623593
196	0x3d05888b	0.03260092
197	0x3cad774d	0.021175051
198	0xbc8fceaa	-0.0175546
199	0x3d5a1e36	0.053251468
200	0x3d531bee	0.051540308
201	0x3dc84692	0.09779085
202	0xbdb3a03b	-0.08770796
203	0xbd6aae8e	-0.057295375
204	0xbc0d7f86	-0.008636361
205	0x3cf37d42	0.029722814
206	0x3bca0a4f	0.0061657797
207	0x3c91f2a1	0.01781589
208	0x3c7d531e	0.015461711
209	0x3d3aedd5	0.04563697
210	0xbcf8f873	-0.030391907
211	0x3caf8769	0.021426873
212	0xbce53963	-0.027981466
213	0x3abb2dec	0.0014280654
214	0xbca6b236	-0.02034865
215	0x3d4365e5	0.047704596
216	0x3d96bcbc	0.07360217
217	0x3c344586	0.011002904
218	0xbd6acbdc	-0.05732332
219	0x3db8d9ae	0.09025894
220	0x3d9f26b5	0.07771055
221	0x3c73587e	0.014852641
222	0xbd65e920	-0.05613053
223	0x3d0a1020	0.033706784
224	0xbc18ed93	-0.009333986
225	0x3d5f6e21	0.054548386
226	0x3d3d6286	0.046236537
227	0xbcd51afe	-0.026013847
228	0xbc51f4cb	-0.012814711
229	0xbcc6aa88	-0.024251238
230	0x3d0f9d89	0.035062347
231	0xbd35a0e3	-0.044342887
232	0xbd050fb1	-0.032485668
233	0x3be7ac74	0.0070701186
234	0x3d1f050c	0.038823172
235	0x3d2d1929	0.042260323
236	0xbd44858c	-0.047978923
237	0x3c9c9c47	0.019117488
238	0x3cf12f1f	0.029441414
239	0x3d1d35e6	0.03838148
240	0x3d1f0253	0.038820576
241	0xbd017c20	-0.031612515
242	0xbc88177e	-0.016612764
243	0xbd7fde37	-0.06246778
244	0x3c55a612	0.0130400825
245	0xbcac8d74	-0.021063544
246	0x3d0d6046	0.03451564
247	0x3d52321e	0.051317327
248	0xbd097f5b	-0.03356872
249	0x3ca8f3a8	0.020623997
250	0xbc0377ac	-0.0080241375
251	0xbd4fa9ae	-0.05069893
252	0x3dcbed70	0.09957397
253	0x3db41eda	0.08794947
254	0x3ba19204	0.0049307365
255	0x3c6586ba	0.014009172

fc.bias f4 [10]
0	0x3c48891e	0.012239723
1	0x3bc9d93f	0.006159931
2	0xbc805769	-0.01566668
3	0x3c72fe2a	0.014831105
4	0xbd502a83	-0.050821792
5	0xbd3eb0fa	-0.046555497
6	0xbc3f64cf	-0.0116817495
7	0xbcbe898e	-0.02325895
8	0x3d88763e	0.06663178
9	0xbcd110c1	-0.025520684
